checkpoints/01/final_model.pt (torch, 318292 bytes, 39 tensors)

weight f4 [16, 3, 3, 3]
0.25904632 0.44538552 0.24576513 0.17030835 0.40697873 0.18457803 -0.21643762 -0.21350202
-0.3788429 -0.18026343 -0.94975245 -0.4022506 -0.19553363 -0.6745918 -0.1800648 0.33869073
-0.013307212 0.22819576 0.20949495 -0.2415168 0.11047415 0.12270675 0.02568989 0.34114537
0.15261684 0.1104768 0.20847404 0.04367297 -0.16294466 0.040029217 -0.44471124 -0.4200305
-0.35323313 -0.35328966 -0.4474186 -0.1153114 0.6645066 0.520244 0.44676456 0.507614
0.55980647 0.21472706 0.50384957 0.33361262 0.16130845 -0.09918465 -0.32217684 0.04827511
-0.7085103 -0.64828354 -0.4953606 0.09572273 0.017393764 0.26412615 0.036644135 -0.08267922
0.705439 -0.35097045 -0.56617814 0.4424891 -0.55473685 -0.50890934 0.36934215 -0.00042556363
-0.14902294 -0.23293027 0.17653365 -0.045863748 -0.28841317 0.072042145 0.0553225 -0.3962604
-0.18475133 0.021596376 -0.507055 0.45131284 0.66554546 -0.13324934 0.4069665 0.8194197
-0.17760131 0.038326688 -0.19142199 -1.134862e-06 -0.06333731 -0.049364045 -0.031995714 0.1369112
0.08535702 0.060910363 -0.27658957 -0.1717618 0.47487515 -0.42838722 -0.10676722 0.42466936
-0.31087962 -0.003784896 0.5371624 -0.27046406 -0.2997133 0.27990592 -0.4389019 -0.13943307
0.39294755 -0.24273595 0.08731572 0.59118897 -0.20637156 -0.68877786 0.24072036 -0.8033208
0.7411627 0.24358192 0.37693974 0.421506 -0.26261973 0.1268249 -0.43612674 0.4594906
-0.5763013 0.83710366 0.19537233 0.22110951 0.13017671 -0.4895282 0.2565947 -0.50942194
0.26157367 -0.5671724 0.7128784 0.07494249 0.37967974 0.18089393 -0.59074175 -0.277243
0.36777827 -0.11056249 -0.9160763 1.0034746 -0.045499153 -0.49712306 0.4867713 0.029143438
-0.54000324 0.41754967 0.18865246 -1.1362244 0.9636567 0.18364403 -0.59189636 0.34099007
0.14791258 -0.08875166 0.24887644 -0.16556379 -0.59966874 0.75148284 -0.22656968 -0.09951037
0.26297322 -0.12753558 0.37529755 0.36542606 0.4538483 -0.21075682 -0.27163613 0.032803245
-0.6144074 -0.69369996 -0.23066385 0.16319537 0.2705379 0.24556902 0.10385296 0.23612708
0.11927761 -0.36356285 -0.1894191 -0.14945942 -0.49773523 -0.52118033 -0.6764647 0.42418486
0.39874613 0.0048137624 0.44455537 0.60411507 0.4403365 -0.21355343 -0.09797418 -0.077720374
-0.96822876 -0.80235404 -0.17725089 0.8056457 0.9390325 0.55759853 0.006535062 -0.059087947
-0.15182702 -0.5935405 -0.51257616 -0.12511332 0.5550344 0.6476729 0.26905334 0.34317958
0.3038508 0.10560227 -0.43285152 -0.32264027 -0.054762512 0.05084679 0.10218572 -0.07193535
0.5860628 0.28615078 0.14800976 0.25189754 -0.20538765 -0.23784901 -0.14821754 -0.5433247
-0.41152337 -0.04757512 0.1079002 0.19840847 -0.09414908 0.09654372 0.1776818 -0.040008772
0.10318894 0.03071628 -0.6765937 -0.3836756 -0.5000779 -0.29673117 0.16357486 0.10511814
0.43706253 0.77263653 0.4982484 -0.16439117 -0.42018414 0.5057724 0.7424989 -1.051889
-0.15147866 0.19025156 0.57699007 -0.28063112 -0.070344515 -0.58717114 0.447294 0.8914626
00000000: b8a1 843e 9209 e43e dba9 7b3e 5065 2e3e
00000010: 845f d03e 0602 3d3e d3a1 5dbe 46a0 5abe
00000020: b2f7 c1be fa96 38be fa22 73bf caf3 cdbe
00000030: f839 48be 0cb2 2cbf e862 38be df68 ad3e
00000040: 7e06 5abc 26ac 693e d885 563e 2e50 77be
00000050: 4540 e23d ad4d fb3d 9b73 d23c 9baa ae3e
00000060: 9747 1c3e a941 e23d 387a 553e 6ee2 323d
00000070: f7da 26be adf5 233d 31b1 e3be 3d0e d7be
00000080: f9da b4be 62e2 b4be 0d14 e5be 6228 ecbd
00000090: 1b1d 2a3f b62e 053f 53be e43e fef2 013f
000000a0: 7a4f 0f3f 69e1 5b3e 49fc 003f 46cf aa3e
000000b0: 0b2e 253e 5221 cbbd 5df4 a4be 1fbc 453d
000000c0: ee60 35bf e9f5 25bf e89f fdbe 470a c43d
000000d0: 5e7d 8e3c 8b3b 873e 2918 163d b953 a9bd
000000e0: a697 343f 66b2 b3be 0df1 10bf ee8d e23e
000000f0: 3c03 0ebf e247 02bf 6a1a bd3e 2f1e dfb9
00000100: 7899 18be 4685 6ebe 3dc5 343e a0db 3bbd
00000110: e4aa 93be d58a 933d d999 623d a5e2 cabe
00000120: 742f 3dbe e2ea b03c 5bce 01bf 7a12 e73e
00000130: 3061 2a3f 8472 08be ea5d d03e 7dc5 513f
00000140: 1edd 35be 72fc 1c3d 2004 44be 9051 98b5
00000150: feb6 81bd f431 4abd f00d 03bd 7332 0c3e
00000160: a9cf ae3d 257d 793d 269d 8dbe 53e2 2fbe
00000170: d622 f33e 9255 dbbe c6a8 dabd 436e d93e
00000180: 9d2b 9fbe 050c 78bb 7a83 093f 447a 8abe
00000190: 0674 99be d44f 8f3e c0b7 e0be 8bc7 0ebe
000001a0: 6c30 c93e c68f 78be 96d2 b23d 2958 173f
000001b0: 1153 53be bf53 30bf 667f 763e 6fa6 4dbf
000001c0: d7bc 3d3f 8a6d 793e 3ffe c03e a2cf d73e
000001d0: 1876 86be 63de 013e 014c dfbe 5a42 eb3e
000001e0: 7b88 13bf 6d4c 563f af0f 483e 886a 623e
000001f0: 0b4d 053e 71a3 fabe 6160 833e 7a69 02bf
00000200: fcec 853e 3632 11bf 337f 363f 737b 993d
00000210: 6265 c23e 423c 393e da3a 17bf cbf2 8dbe
00000220: 6f4d bc3e 966e e2bd fa83 6abf db71 803f
00000230: 525d 3abd ea86 febe 163a f93e 38be ee3c
00000240: a73d 0abf 12c9 d53e 1c2e 413e cd6f 91bf
00000250: 35b2 763f 2e0d 3c3e 8586 17bf 4096 ae3e
00000260: 6576 173e 6ec3 b5bd 77d9 7e3e 8e89 29be
00000270: e483 19bf 2e61 403f e201 68be 18cc cbbd
00000280: 6da4 863e b098 02be 0027 c03e 2019 bb3e
00000290: ce5e e83e a3d0 57be e413 8bbe b25c 063d
000002a0: ce49 1dbf 5296 31bf 2533 6cbe b01c 273e
000002b0: f283 8a3e 7276 7b3e dcb0 d43d 4ccb 713e
000002c0: d247 f43d e924 babe 15f7 41be e40b 19be
000002d0: 27d7 febe 136c 05bf ca2c 2dbf c22e d93e
000002e0: 7428 cc3e c4bc 9d3b c39c e33e 49a7 1a3f
000002f0: c973 e13e c0ad 5abe b0a6 c8bd dc2b 9fbd
00000300: d7dd 77bf 1367 4dbf 4281 35be cc3e 4e3f
00000310: 6f64 703f c7be 0e3f 1324 d63b 3406 72bd
00000320: 8b78 1bbe 45f2 17bf 3138 03bf b51d 00be
00000330: bc16 0e3f e4cd 253f 5cc1 893e 3cb5 af3e
00000340: 5592 9b3e 0146 d83d b79e ddbe 1b31 a5be
00000350: a84e 60bd b944 503d bf46 d13d d752 93bd
00000360: 3608 163f 5b82 923e df8f 173e b7f8 803e
00000370: 2451 52be b18e 73be 57c6 17be 5417 0bbf
00000380: 31b3 d2be 21de 42bd c8fa dc3d 972b 4b3e
00000390: 3cd1 c0bd b7b8 c53d 38f2 353e 3de0 23bd
000003a0: b954 d33d b5a0 fb3c 3f35 2dbf 2171 c4be
000003b0: 1b05 00bf 26ed 97be 2b80 273e 2e48 d73d
000003c0: a9c6 df3e 82cb 453f 6a1a ff3e 2956 28be
000003d0: 6022 d7be 4d7a 013f 6814 3e3f 4ca4 86bf
000003e0: 391d 1bbe 4ed1 423e 9fb5 133f e2ae 8fbe
000003f0: c910 90bd d950 16bf b803 e53e e536 643f

weight f4 [16]
0.6607343 0.5235983 0.44875222 0.5075609 0.48816258 0.8509893 0.3828466 0.7793379
0.42095283 0.81358397 0.87656975 0.5330297 0.44293535 0.5962003 0.45392844 0.64194995
00000000: e225 293f 8a0a 063f dac2 e53e 83ef 013f
00000010: 72f0 f93e 6fda 593f 7804 c43e b082 473f
00000020: 2187 d73e 0a47 503f e066 603f a274 083f
00000030: 6cc8 e23e 95a0 183f 4f69 e83e d556 243f

bias f4 [16]
-0.6299351 0.09400716 0.287352 0.42099026 0.36124647 0.023345057 0.09334212 -0.08381467
0.26563442 -0.0822403 -0.058346894 0.28010663 0.20273554 0.08000459 0.29846546 0.28386572
00000000: 6d43 21bf d386 c03d cd1f 933e 098c d73e
00000010: 4cf5 b83e 223e bf3c 272a bf3d 07a7 abbd
00000020: 3c01 883e 9a6d a8bd 27fd 6ebd 236a 8f3e
00000030: e899 4f3e 72d9 a33d 77d0 983e d956 913e

running_mean f4 [16]
-0.06280366 -0.043422896 -0.026151393 0.025557693 0.30049515 0.02378614 0.084880844 -0.020992367
0.14432995 -0.15395468 -0.03872829 -0.27231997 0.17946792 0.08622368 0.058718618 -0.3173792
00000000: 359f 80bd 35dc 31bd 723b d6bc 5e5e d13c
00000010: 80da 993e 27db c23c 02d6 ad3d 2ff8 abbc
00000020: 3bcb 133e 4ca6 1dbe 8ea1 1ebd 866d 8bbe
00000030: 70c6 373e 0a96 b03d ef82 703d 877f a2be

running_var f4 [16]
0.034356665 0.08509241 0.03851849 0.21174946 0.12364539 0.38536385 0.050635166 0.2805092
0.031124443 0.25940245 0.25299737 0.1334503 0.29730487 0.15615565 0.022487719 0.30597547
00000000: 93b9 0c3d ee44 ae3d 90c5 1d3d dad4 583e
00000010: cb39 fd3d 694e c53e d266 4f3d e79e 8f3e
00000020: b0f8 fe3c 66d0 843e df88 813e 32a7 083e
00000030: 5838 983e 44e7 1f3e 2a38 b83c d1a8 9c3e

weight f4 [32, 16, 3, 3]
-0.09319668 0.002064967 0.084868856 -0.005811142 -0.06540514 0.0029243806 -0.06872109 -0.03633332
-0.011420237 0.7342358 -0.049049914 -0.29804933 0.2773725 -0.9721266 -0.9178188 -0.082752906
-1.021378 -0.69757605 -0.07212563 -0.0130924815 -0.25770095 0.23470469 -0.012143061 -0.07178068
0.2118416 -0.11229053 -0.028705679 -0.064409696 -0.012434602 0.047030583 0.04807263 0.037905645
0.06486505 -0.028284714 -0.021388128 0.029321613 0.046449136 0.22929227 0.09433372 0.08466876
0.1531665 -0.06834543 -0.0457587 -0.11119084 0.0026430667 0.099878035 0.045388248 0.06532541
0.03745897 -0.048418686 -0.049866974 0.07439122 0.062025372 -0.024682341 0.035195947 -0.12461017
-0.1915552 -0.03479362 -0.23180406 -0.100929044 -0.07079985 -0.0882513 -0.0888225 -0.13200197
-0.010650993 -0.087070785 -0.008329148 0.045863528 0.06934197 0.21177603 0.105302945 0.0985214
0.17026596 -0.19646466 -0.02367258 -0.33346447 -0.45314637 0.029314052 -0.4787086 -0.22023985
0.033222686 -0.04420948 -0.019438008 0.09512628 -0.10583846 0.03456984 0.09240745 0.06881804
0.035013683 0.01846037 0.03679155 0.10707137 -0.022381509 0.092184 0.1363675 0.041394107
0.09885644 0.13287677 0.0023328182 0.026128292 -0.20586027 -0.15111147 -0.04306734 -0.24173817
-0.0887342 0.08993934 -0.0009597472 0.12753518 -0.06990794 0.059874583 0.025420513 0.010593423
0.07084156 0.17900838 -0.031271584 -0.046830382 0.035597906 -0.11830757 -0.07883437 -0.092732206
-0.28138778 -0.30220857 -0.0379042 -0.20239462 -0.12123856 0.014608391 -0.18113999 0.8264781
0.33613086 0.14381933 0.51267356 -0.10857528 -0.089840524 0.1026051 -0.17187206 -0.17892575
0.09016871 -0.03628204 0.07737621 0.15435289 0.22131734 0.06932084 0.16480337 0.2452855
-0.108762644 -0.043719932 0.20934945 -0.09610879 -0.007821721 0.14201434 -0.09726955 -0.18673742
-0.09723415 -0.12042374 -0.022957804 -0.14449269 -0.014338009 0.22848393 0.20160913 -0.16338573
0.12752101 0.2415554 -0.081925206 0.00017769364 0.1836398 -0.070424534 -0.11437197 0.028562145
-0.12997882 -0.09189381 0.035531852 -0.07525085 0.10313941 0.023463245 -0.231903 -0.08110496
-0.05920104 0.114327155 0.17051731 -0.033767994 -0.087452956 -0.20986079 0.052800592 -0.038365055
-0.2338049 -0.12438384 0.09094717 0.20861392 0.2009981 -0.0070659653 -0.31231666 0.19466479
-0.18781102 -0.6386571 -0.043283682 0.16740127 -0.09539561 0.03768245 -0.1182677 0.040005196
0.045727845 0.10482435 0.12409178 0.15519178 -0.106725454 -0.020183971 0.017821206 0.1400939
0.1319086 -0.14393671 0.19193235 0.26257184 0.017899346 0.16099997 0.2709374 0.10442133
-0.18272343 -0.1960484 -0.16557162 -0.07599496 -0.06038589 -0.10851086 0.035864476 0.06776928
0.0073940777 -0.15413111 -0.33832294 0.009238701 -0.016580533 -0.27648827 -0.2558229 -0.10527927
-0.057281516 0.056079637 -0.36134028 -0.5399021 -0.01564295 -0.3539541 -0.88000613 -0.42532024
-0.05815046 -0.43289077 -0.09730837 0.22085133 0.13094164 0.13689066 0.042041868 -0.08590589
0.0011343926 -0.07749565 0.025740294 -0.058937266 0.14140885 0.06374342 -0.04707432 0.14210723
00000000: e7dd bebd 6654 073b b9cf ad3d 646b bebb
00000010: 21f3 85bd f7a6 3f3b a5bd 8cbd 3fd2 14bd
00000020: f21b 3bbc e1f6 3b3f 90e8 48bd ec99 98be
00000030: c503 8e3e 4add 78bf 2cf6 6abf 5b7a a9bd
00000040: 84bc 82bf 5894 32bf 9ab6 93bd d981 56bc
00000050: 61f1 83be 6d56 703e b0f3 46bc c001 93bd
00000060: 01ed 583e 94f8 e5bd 2c28 ebbc 3be9 83bd
00000070: 80ba 4bbc 24a3 403d cee7 443d f342 1b3d
00000080: f8d7 843d 58b5 e7bc 2836 afbc e133 f03c
00000090: 7341 3e3d 98cb 6a3e 0a32 c13d d166 ad3d
000000a0: aed7 1c3e b0f8 8bbd 7a6d 3bbd 06b8 e3bd
000000b0: 4d37 2d3b db8c cc3d 07e9 393d 54c9 853d
000000c0: 946e 193d ac52 46bd 5041 4cbd 6d5a 983d
000000d0: 510e 7e3d 9f32 cabc a029 103d 9e33 ffbd
000000e0: 0c27 44be c183 0ebd 0b5e 6dbe e3b3 cebd
000000f0: 83ff 90bd 19bd b4bd 92e8 b5bd 862b 07be
00000100: 8181 2ebc 2b52 b2bd fb76 08bc 65db 3b3d
00000110: 2a03 8e3d d1db 583e 12a9 d73d 96c5 c93d
00000120: 335a 2e3e 082e 49be 00ed c1bc dbbb aabe
00000130: cd02 e8be 0624 f03c 4b19 f5be 8e86 61be
00000140: 8314 083d 0015 35bd 753c 9fbc 91d1 c23d
00000150: d6c1 d8bd 1b99 0d3d 1e40 bd3d 79f0 8c3d
00000160: 826a 0f3d 343a 973c bdb2 163d 3c48 db3d
00000170: 6d59 b7bc f7ca bc3d eca3 0b3e de8c 293d
00000180: 3f75 ca3d d910 083e 32e2 183b 000b d63c
00000190: 09cd 52be f7bc 1abe 6167 30bd 368a 77be
000001a0: 47ba b5bd 1e32 b83d 8b97 7bba 9598 023e
000001b0: e52b 8fbd 0d3f 753d ae3e d03c 0990 2d3c
000001c0: 6115 913d f94d 373e a216 00bd 37d1 3fbd
000001d0: 1ccf 113d 3d4b f2bd ea73 a1bd 62ea bdbd
000001e0: 0f12 90be 15bb 9abe 6f41 1bbd 8940 4fbe
000001f0: ec4b f8bd 0858 6f3c c37c 39be 1294 533f
00000200: 5819 ac3e 6045 133e 933e 033f b75c debd
00000210: 4ffe b7bd 9f22 d23d 3bff 2fbe 5038 37be
00000220: 5faa b83d 7a9c 14bd 6b77 9e3d af0e 1e3e
00000230: 03a1 623e 16f8 8d3d 37c2 283e 1f2c 7b3e
00000240: f3be debd ac13 33bd b45f 563e afd4 c4bd
00000250: ad26 00bc 356c 113e 4235 c7bd 1838 3fbe
00000260: b322 c7bd b9a0 f6bd 0112 bcbc e4f5 13be
00000270: f8e9 6abc b1f7 693e a072 4e3e 974e 27be
00000280: de94 023e 4c5a 773e 67c8 a7bd 4653 3a39
00000290: 120c 3c3e bd3a 90bd da3b eabd 29fb e93c
000002a0: 2b19 05be d232 bcbd d989 113d 1e1d 9abd
000002b0: c13a d33d fe35 c03c fb77 6dbe 5b1a a6bd
000002c0: ca7c 72bd 5b24 ea3d 179c 2e3e 4f50 0abd
000002d0: 891a b3bd bfe5 56be 6f45 583d ad24 1dbd
000002e0: 8d6a 6fbe f4bc febd 8342 ba3d e39e 553e
000002f0: 72d2 4d3e 9d89 e7bb f8e7 9fbe 3556 473e
00000300: 8851 40be 087f 23bf 3b4a 31bd 3d6b 2b3e
00000310: c65e c3bd ea58 1a3d 5636 f2bd 7ddc 233d
00000320: 1f4d 3b3d 26ae d63d d523 fe3d 98ea 1e3e
00000330: e092 dabd db58 a5bc c7fd 913c c674 0f3e
00000340: 0c13 073e 2564 13be ea89 443e d16f 863e
00000350: a6a1 923c 2ddd 243e 4fb8 8a3e dada d53d
00000360: da1b 3bbe e9c0 48be 9b8b 29be 3fa3 9bbd
00000370: 3257 77bd f13a debd a1e6 123d 9fca 8a3d
00000380: 054a f23b 8cd4 1dbe aa38 adbe ec5d 173c
00000390: e6d3 87bc df8f 8dbe 38fb 82be a89c d7bd
000003a0: 06a0 6abd c3b3 653d 9801 b9be 0637 0abf
000003b0: a525 80bc 7939 b5be 1548 61bf 93c3 d9be
000003c0: 2d2f 6ebd dca3 ddbe 9c49 c7bd da26 623e
000003d0: 9115 063e 112d 0c3e 1834 2c3d 6def afbd
000003e0: e6af 943a 0ab6 9ebd 4fdd d23c 3468 71bd
000003f0: 7bcd 103e e98b 823d 01d1 40bd 8f84 113e

weight f4 [32]
0.40481076 0.50261295 0.36357784 0.2701251 0.63576555 0.45335767 0.5743703 0.47876838
1.2308576 0.34574807 0.2610704 0.44969806 0.42019075 0.45102185 0.44504303 0.40821663
0.49146053 0.3756442 0.68181074 0.5135945 0.3726044 0.9250081 0.8014344 0.41428465
0.5391055 0.3684926 0.39036465 0.25345352 0.8546737 0.64053404 1.0098377 0.33638945
00000000: 5b43 cf3e 3eab 003f e026 ba3e d64d 8a3e
00000010: 88c1 223f 7f1e e83e ef09 133f 2121 f53e
00000020: be8c 9d3f e405 b13e 05ab 853e d33e e63e
00000030: 3e23 d73e 56ec e63e aedc e33e c501 d13e
00000040: b7a0 fb3e 7054 c03e 268b 2e3f ee7a 033f
00000050: 01c6 be3e 55cd 6c3f ce2a 4d3f 1e1d d43e
00000060: d102 0a3f 10ab bc3e e0dd c73e a9c4 813e
00000070: e5cb 5a3f 0afa 233f 5d42 813f 3d3b ac3e

bias f4 [32]
0.057528038 -0.061245143 0.13624978 0.10301458 -0.34994894 -0.13554871 -0.2265536 -0.26116735
-0.415646 -0.09565969 0.13619487 -0.093640015 -0.17625353 0.0670159 -0.020560293 -0.04056366
-0.21882674 -0.043168984 -0.4053481 -0.20824575 -0.09551852 -0.4005618 -0.1949369 -0.10126505
-0.09830669 0.15950431 -0.021712083 0.013529376 -0.39796606 -0.3480206 -0.23332453 0.009657882
00000000: 85a2 6b3d 30dc 7abd 1085 0b3e 4ff9 d23d
00000010: 822c b3be 48cd 0abe abfd 67be bab7 85be
00000020: 8dcf d4be 3ae9 c3bd ab76 0b3e 56c6 bfbd
00000030: ce7b 34be a23f 893d 0f6e a8bc 1526 26bd
00000040: 1e14 60be f6d1 30bd c989 cfbe 603e 55be
00000050: 379f c3bd 7016 cdbe 8a9d 47be 0d64 cfbd
00000060: 0555 c9bd 1955 233e 8add b1bc 51aa 5d3c
00000070: 35c2 cbbe c22f b2be a0ec 6ebe 183c 1e3c

running_mean f4 [32]
-0.7648551 -1.781025 -0.923154 2.2931721 -2.153176 -1.0767533 -1.6542432 2.3366692
-1.9468737 -0.7418351 -0.18773784 -0.5409085 -1.4799321 -2.845178 2.184466 -2.3783104
-1.6892467 -0.41312158 -2.28818 -1.1566358 0.5356631 -5.1155663 -2.3908603 -0.69446766
-3.1325417 1.3485485 0.5770123 0.6573265 -4.290777 -2.5266078 -2.3296175 1.020899
00000000: 8bcd 43bf a1f8 e3bf d253 6cbf 55c3 1240
00000010: a3cd 09c0 0dd3 89bf 3ebe d3bf fd8b 1540
00000020: 2833 f9bf e8e8 3dbf 593e 40be fb78 0abf
00000030: 6a6e bdbf 6517 36c0 4ace 0b40 3d36 18c0
00000040: 3c39 d8bf ac84 d3be 8b71 12c0 a40c 94bf
00000050: 3821 093f b8b2 a3c0 db03 19c0 a2c8 31bf
00000060: 907b 48c0 3d9d ac3f 14b7 133f 8d46 283f
00000070: 0c4e 89c0 f1b3 21c0 7418 15c0 d2ac 823f

running_var f4 [32]
2.5324738 4.021161 2.013566 2.1066859 3.8025699 2.9710531 4.773065 3.1707792
10.5144415 1.3387427 1.41434 1.8161758 1.3676121 3.5694911 4.792708 1.6291959
3.2604926 1.9879199 4.9292917 2.1889908 1.3775508 7.284328 5.4235935 3.0612094
3.901942 2.1641357 1.5818695 1.6793283 7.1162863 4.060901 8.367312 1.9226581
00000000: 0d14 2240 5aad 8040 44de 0040 f1d3 0640
00000010: 4e5d 7340 bc25 3e40 f3bc 9840 0cee 4a40
00000020: 273b 2841 ec5b ab3f 1809 b53f 7378 e83f
00000030: ea0d af3f 8b72 6440 dd5d 9940 7e89 d03f
00000040: e9ab 5040 2974 fe3f c2bc 9d40 6d18 0c40
00000050: 9653 b03f 3719 e940 148e ad40 dbea 4340
00000060: 6bb9 7940 3381 0a40 b37a ca3f 3bf4 d63f
00000070: 9eb8 e340 e7f2 8140 83e0 0541 a919 f63f

weight f4 [64, 32, 3, 3]
0.119506404 -0.012149718 -0.03077782 0.04887248 -0.21497673 0.1663309 -0.023482546 -0.0081940135
0.23656283 0.0049081924 -0.032981284 0.109174214 -0.08435603 0.15031953 0.12742516 0.04398424
0.18199776 0.21743515 -0.083705135 -0.25218144 0.029995082 0.11769174 -0.049311727 0.3184801
0.14855959 0.12584554 0.33151573 -0.051026754 -0.09946703 0.15207244 -0.08370624 0.044863645
0.19668108 0.023253338 -0.0035698435 0.15648404 0.1642269 0.1486862 -0.035030868 0.047386456
0.29740486 0.14922254 -0.16176903 -0.1703513 -0.04093503 0.17611288 0.032252014 -0.055140704
0.47240722 0.21757388 -0.11616687 0.30261278 0.12867045 -0.09715062 0.050452724 0.057526037
-0.03349247 0.040294304 0.074275054 0.016438983 0.17162332 0.033506203 -0.09695351 0.07528712
-0.071948685 0.099661715 0.16663069 -0.14839536 0.01108005 0.17496239 -0.08853967 0.14163981
-0.10828435 -0.41580963 -0.21270476 -0.09533714 -0.32826874 -0.14880733 -0.089232184 -0.23898163
-0.06891307 -0.077796765 -0.07442882 0.14151086 0.15916327 -0.12355409 -0.21046278 0.12436724
-0.12973431 -0.2727311 -0.051385593 0.018807855 0.2036498 0.009196677 0.087548375 -0.013519522
-0.024579981 -0.00275765 -0.07608386 -0.0641481 0.06649704 -0.052685566 -0.23741724 0.07221485
0.32907978 -0.26808998 0.033808034 0.22791676 -0.1647967 0.077293396 0.16925685 0.14171217
0.15327455 0.013270162 -0.041606087 -0.15720372 -0.16452144 0.1778451 0.3032603 0.024963483
0.3076896 0.3661006 -0.010704626 -0.05343011 -0.1556293 -0.09518056 -0.19873852 -0.1588368
-0.06750758 -0.1363239 -0.304518 0.09660047 0.03646364 0.3246355 0.23077656 -0.15725617
-0.004304283 0.16490223 0.22061029 -0.044487506 0.009957036 0.12662938 0.1120532 -0.057462268
0.009634109 0.053150613 0.045338567 0.17309257 -0.045337398 0.04913718 0.0056854114 -0.15328693
0.056137357 0.16413389 0.0018613099 0.017014952 0.15072922 0.19741336 0.07646007 0.02824376
0.15263388 0.09361966 0.13564555 0.13052922 0.20990002 0.26529756 0.33285213 0.2535486
0.0309412 0.073556684 0.06596922 0.050671987 -0.035508107 -0.0366625 -0.037944034 -0.16899084
0.053488895 -0.06455148 -0.031095702 -0.011664831 0.07108917 -0.012677872 -0.13732706 0.025219059
0.014245765 0.38902462 0.011648023 -0.09136208 0.22842523 0.16593315 0.03687348 0.044141795
0.039076734 0.2095271 0.06641536 0.16765237 -0.004330165 -0.0025055672 0.1023336 -0.07724101
-4.509352e-05 -0.0631063 -0.20247827 0.015973393 0.06762314 -0.043153793 0.05399995 -0.03686421
0.36041412 0.44477355 0.0015941452 0.16980535 0.50975865 -0.011762678 -0.09511627 -0.09649462
0.1608778 0.32680073 0.24414934 -0.034106325 0.026665365 0.13901414 0.25497916 -0.029718544
0.060187817 0.005044582 -0.0022294556 0.058304552 0.12444887 -0.28676313 -0.14905453 -0.023099476
-0.010468571 -0.0543415 0.16710168 0.022756517 -0.023013406 0.0034629335 -0.110429436 -0.09677458
0.07321818 -0.23809625 0.21906637 -0.120899014 -0.13651335 -0.000816978 -0.011673626 -0.15268615
-0.0052066087 0.1986315 0.19657949 0.13021836 0.08408533 -0.10430849 -0.2010813 0.39955363
00000000: c6bf f43d 9c0f 47bc c421 fcbc 822e 483d
00000010: dc22 5cbe a652 2a3e 785e c0bc 2f40 06bc
00000020: 873d 723e e7d4 a03b 6217 07bd bb96 df3d
00000030: dbc2 acbd 5ded 193e be7b 023e d228 343d
00000040: 9f5d 3a3e 52a7 5e3e 996d abbd ed1d 81be
00000050: 3fb8 f53c 5e08 f13d 18fb 49bd d30f a33e
00000060: 0120 183e a7dd 003e 6ebc a93e 6e01 51bd
00000070: 5fb5 cbbd e1b8 1b3e 2d6e abbd f1c2 373d
00000080: c466 493e c97d be3c 09f4 69bb 5a3d 203e
00000090: 192b 283e 3241 183e 877c 0fbd 4d18 423d
000000a0: 7345 983e cbcd 183e c8a6 25be 9270 2ebe
000000b0: 7dab 27bd ef56 343e b01a 043d 38db 61bd
000000c0: 5cdf f13e b0cb 5e3e e5e8 edbd 10f0 9a3e
000000d0: 30c2 033e e7f6 c6bd 84a7 4e3d 6ca0 6b3d
000000e0: 662f 09bd a40b 253d 851d 983d 0cab 863c
000000f0: 06be 2f3e cd3d 093d 908f c6bd 2230 9a3d
00000100: d559 93bd 711b cc3d 3ca1 2a3e f4f4 17be
00000110: 1989 353c 5729 333e 4954 b5bd 070a 113e
00000120: 2fc4 ddbd 00e5 d4be 47cf 59be 1e40 c3bd
00000130: d712 a8be f360 18be 5dbf b6bd 9ab7 74be
00000140: 4c22 8dbd e953 9fbd 236e 98bd 39e8 103e
00000150: b2fb 223e ed09 fdbd 8e83 57be 40b4 fe3d
00000160: 12d9 04be 69a3 8bbe b379 52bd ee12 9a3c
00000170: 9389 503e a9ad 163c 904c b33d fc80 5dbc
00000180: f55b c9bc b1b9 34bb dbd1 9bbd 1460 83bd
00000190: 9a2f 883d d2cc 57bd 811d 73be 61e5 933d
000001a0: 257d a83e 1743 89be 4b7a 0a3d 0363 693e
000001b0: 77c0 28be 004c 9e3d ab51 2d3e ff1c 113e
000001c0: 01f4 1c3e 186b 593c 256b 2abd 03fa 20be
000001d0: 4f78 28be 071d 363e ef44 9b3e 3880 cc3c
000001e0: 7e89 9d3e 8a71 bb3e 7562 2fbc 88d9 5abd
000001f0: 4a5d 1fbe 07ee c2bd 1c82 4bbe 1da6 22be
00000200: 6a41 8abd 7e98 0bbe c9e9 9bbe 78d6 c53d
00000210: e65a 153d a036 a63e b150 6c3e c307 21be
00000220: f10a 8dbb 21dc 283e aae7 613e 8838 36bd
00000230: d622 233c 22ab 013e 267c e53d 8e5d 6bbd
00000240: 62d8 1d3c 75b4 593d efb4 393d 2e3f 313e
00000250: b5b3 39bd 1144 493d b04c ba3b 40f7 1cbe
00000260: 49f0 653d b712 283e 32f7 f33a f162 8b3c
00000270: c358 1a3e ba26 4a3e 1997 9c3d 755f e73c
00000280: 0e4c 1c3e aabb bf3d abe6 0a3e 74a9 053e
00000290: 08f0 563e 15d5 873e 986b aa3e 1fd1 813e
000002a0: 6678 fd3c e3a4 963d df1a 873d 6e8d 4f3d
000002b0: f370 11bd 6b2b 16bd 346b 1bbd ef0b 2dbe
000002c0: 2c17 5b3d 9133 84bd 6abc febc d91d 3fbc
000002d0: 3397 913d d9b6 4fbc 779f 0cbe 3398 ce3c
000002e0: 1267 693c 3c2e c73e 59d7 3e3c 0b1c bbbd
000002f0: 4ee8 693e 61ea 293e a508 173d 07ce 343d
00000300: ed0e 203d 468e 563e c704 883d 10ad 2b3e
00000310: 0fe4 8dbb 7134 24bb 4794 d13d 8930 9ebd
00000320: cc22 3db8 e03d 81bd 7756 4fbe a2da 823c
00000330: 007e 8a3d 08c2 30bd 0d2f 5d3d edfe 16bd
00000340: 3388 b83e 5cb9 e33e a3f2 d03a 74e1 2d3e
00000350: 8b7f 023f 3fb8 40bc 52cc c2bd f99e c5bd
00000360: 26bd 243e 6d52 a73e 4902 7a3e 13b3 0bbd
00000370: 5371 da3c b959 0e3e a18c 823e 4e74 f3bc
00000380: 8087 763d 054d a53b 0f1c 12bb c1d0 6e3d
00000390: 0ddf fe3d 9ed2 92be c0a1 18be 1d3b bdbc
000003a0: 5f84 2bbc 3195 5ebd b41c 2b3e e06b ba3c
000003b0: 9c86 bcbc 62f2 623b d428 e2bd c031 c6bd
000003c0: 6af3 953d 81cf 73be ef52 603e e799 f7bd
000003d0: 28ca 0bbe 772a 56ba bc42 3fbc c259 1cbe
000003e0: 339c aabb 0e66 4b3e 224c 493e f657 053e
000003f0: ee34 ac3d b19f d5bd 42e8 4dbe 4b92 cc3e

weight f4 [64]
0.31141856 0.61546296 0.53923 0.2422429 0.43977147 0.4159916 0.570122 0.33296865
0.3593256 0.21487166 0.42235512 0.4217322 0.39613554 0.41864192 0.44615665 0.43903297
0.15128198 0.35805663 0.6519112 0.58411765 0.2356773 0.21227594 0.43851063 0.2530047
0.14270036 0.44102815 0.5065474 0.21869476 0.4480305 0.4849069 0.2208542 0.213926
0.25475234 0.29709846 0.4840363 0.37665728 0.44562858 0.43978015 0.36955816 0.32628384
0.24864443 0.31650507 0.55205005 0.37489057 0.13274421 0.4225474 0.47137722 0.5106545
0.35816193 0.38445124 0.5006737 0.13607445 0.39565608 0.19488177 0.29554555 0.20913012
0.30690768 0.7094165 0.46076202 0.3657792 0.44753203 0.42907563 0.36346167 0.5045361
00000000: 4172 9f3e fb8e 1d3f fa0a 0a3f 860e 783e
00000010: ba29 e13e dafc d43e 84f3 113f de7a aa3e
00000020: 86f9 b73e 5107 5c3e ee3e d83e 48ed d73e
00000030: 47d2 ca3e 3c58 d63e a56e e43e eec8 e03e
00000040: aae9 1a3e 3353 b73e a7e3 263f bc88 153f
00000050: 6455 713e dd5e 593e 7784 e03e d589 813e
00000060: 0b20 123e 71ce e13e 17ad 013f 85f1 5f3e
00000070: 4164 e53e b845 f83e 9a27 623e 6b0f 5b3e
00000080: e66e 823e 4a1d 983e 9bd3 f73e 39d9 c03e
00000090: 6e29 e43e dd2a e13e ba36 bd3e ad0e a73e
000000a0: a59c 7e3e f40c a23e 2753 0d3f a8f1 bf3e
000000b0: 19ee 073e 2258 d83e 5b58 f13e 41ba 023f
000000c0: 0061 b73e cbd6 c43e 272c 003f 1a57 0b3e
000000d0: 6f93 ca3e 168f 473e bf51 973e 3526 563e
000000e0: 0123 9d3e 529c 353f 00e9 eb3e 6947 bb3e
000000f0: eb22 e53e cdaf db3e a617 ba3e 4729 013f

bias f4 [64]
-0.12106238 -0.27690926 -0.4084629 0.06458787 -0.0011744857 -0.16851114 -0.2357838 -0.20784293
-0.12960707 0.16141252 -0.12628546 -0.14344041 -0.14301686 -0.21911748 -0.3191152 -0.43672982
0.08173542 -0.27567622 -0.12941456 -0.24497005 -0.13176821 0.0087769795 -0.27853206 0.02442649
0.14895563 -0.43792558 -0.17377749 0.043101292 -0.39754078 -0.35122523 -0.11634784 0.1270405
0.064651586 0.09172496 -0.4579517 -0.4638968 -0.5653996 -0.35186678 -0.10462497 -0.1682907
0.0586085 -0.159702 -0.39232728 -0.18605821 0.15100738 -0.41723132 -0.31280258 -0.22973777
-0.23997094 -0.15602046 -0.16851576 0.044953514 -0.36856082 -0.014792162 0.08147575 0.06452111
-0.09150263 -0.27426863 -0.38962153 -0.0625032 0.06395366 -0.28196773 -0.20324686 -0.118311964
00000000: 8eef f7bd 0dc7 8dbe 0d22 d1be a546 843d
00000010: 33f1 99ba 2f8e 2cbe 4f71 71be c7d4 54be
00000020: b7b7 04be 5349 253e fa50 01be 0be2 12be
00000030: 0373 12be 5560 60be 1163 a3be 0d9b dfbe
00000040: e664 a73d 6f25 8dbe 4085 04be 6ed9 7abe
00000050: 3fee 06be 52cd 0f3c c19b 8ebe 101a c83c
00000060: d387 183e c837 e0be baf2 31be fb8a 303d
00000070: 778a cbbe cbd3 b3be c747 eebd e816 023e
00000080: 0d68 843d 4cda bb3d a578 eabe e283 edbe
00000090: 07be 10bf e227 b4be 9e45 d6bd 6654 2cbe
000000a0: 770f 703d ec88 23be 1fdf c8be 0b86 3ebe
000000b0: aea1 1a3e 589f d5be a927 a0be 6140 6bbe
000000c0: f1ba 75be d4c3 1fbe 658f 2cbe 2d21 383d
000000d0: 01b4 bcbe d35a 72bc c2dc a63d a523 843d
000000e0: bb65 bbbd f06c 8cbe 797c c7be ad01 80bd
000000f0: 23fa 823d 135e 90be f21f 50be 8b4d f2bd

running_mean f4 [64]
1.2231295 -2.51082 -0.06963369 0.25207675 -2.7545283 -0.5140919 0.035309073 -0.35334387
-0.49157858 0.03377866 -2.8695326 -1.402458 -0.73322296 -0.9898727 -1.8846068 -1.5247926
0.08314664 -0.28149593 -1.1583695 -1.190197 -1.3944277 0.29283118 0.05972489 -1.8477677
-2.2918038 -0.633247 -0.5574839 -0.5900541 -0.6699228 0.36385155 0.9798401 1.0612291
-0.05035099 -0.95797443 -0.9880427 -1.4855714 -0.32025912 -0.629412 -0.41647413 -0.5457091
-0.36911482 -0.31255752 -0.58826894 0.49813935 1.6790301 -1.2580427 -1.5874821 -1.9795687
-2.737232 -1.5750595 -2.557312 0.2372445 -1.2959747 0.40360785 -1.7556089 1.4954653
-1.2983795 -4.30814 -1.0403224 2.6785622 -0.6171311 -2.0084689 -0.17905353 -0.026833756
00000000: 828f 9c3f 46b1 20c0 1c9c 8ebd 3410 813e
00000010: 314a 30c0 879b 03bf 3fa0 103d 7de9 b4be
00000020: 30b0 fbbe 7e5b 0a3d 6ca6 37c0 be83 b3bf
00000030: 80b4 3bbf 4c68 7dbf cc3a f1bf 672c c3bf
00000040: c948 aa3d 3c20 90be 7445 94bf 6058 98bf
00000050: 9b7c b2bf f8ed 953e 16a2 743d a783 ecbf
00000060: eaac 12c0 7a1c 22bf 44b7 0ebf c90d 17bf
00000070: 1080 2bbf c04a ba3e cdd6 7a3f 5bd6 873f
00000080: d73c 4ebd d03d 75bf 5ef0 7cbf 3427 bebf
00000090: 01f9 a3be 2521 21bf 193c d5be 97b3 0bbf
000000a0: 9efc bcbe 8a07 a0be cb98 16bf 1f0c ff3e
000000b0: 75ea d63f 8b07 a1bf 9d32 cbbf 8262 fdbf
000000c0: cf2e 2fc0 8d9b c9bf 00ab 23c0 39f0 723e
000000d0: 80e2 a5bf b0a5 ce3e cbb7 e0bf 686b bf3f
000000e0: 4d31 a6bf 48dc 89c0 4929 85bf 906d 2b40
000000f0: 4efc 1dbf c18a 00c0 cf59 37be 77d2 dbbc

running_var f4 [64]
1.1016295 1.331901 1.390121 1.4348726 1.5398505 1.1675067 1.4757626 1.124122
1.0108433 1.7318511 1.8295144 1.8734379 1.0675864 1.2441127 1.9002688 1.1228437
1.1040113 0.78587663 1.7553988 1.7576451 1.3126214 1.0788815 1.291445 1.5270052
1.4104942 1.1733246 1.0347773 1.0797232 0.9396928 1.1484841 1.0012741 1.7816305
1.3265278 1.8770714 1.0440544 0.9036724 0.76983905 1.3242009 1.2445639 1.1298791
1.3940574 1.0331715 1.0338333 0.99561864 1.6623378 1.1306225 1.8018268 2.0614777
1.362193 2.2632492 1.166762 2.2570605 1.1152667 1.1035227 1.337774 1.5573571
1.4085281 3.3523922 1.6160982 1.8503973 1.7295439 1.188432 0.880021 1.2212168
00000000: 3202 8d3f bb7b aa3f 7cef b13f e8a9 b73f
00000010: d219 c53f dc70 953f cae5 bc3f 3be3 8f3f
00000020: 5063 813f 4cad dd3f 872d ea3f d0cc ef3f
00000030: aca6 883f 163f 9f3f 023c f33f 58b9 8f3f
00000040: 3e50 8d3f 362f 493f e8b0 e03f 84fa e03f
00000050: fa03 a83f ca18 8a3f 124e a53f e874 c33f
00000060: 138b b43f 802f 963f 9573 843f 5f34 8a3f
00000070: b58f 703f 8701 933f c029 803f 780c e43f
00000080: aacb a93f e043 f03f 93a3 853f 1357 673f
00000090: 2c14 453f 6a7f a93f df4d 9f3f e19f 903f
000000a0: 7970 b23f f73e 843f a654 843f dde0 7e3f
000000b0: 7cc7 d43f 3db8 903f 43a2 e63f 40ef 0340
000000c0: 575c ae3f 13d9 1040 7558 953f ae73 1040
000000d0: 0fc1 8e3f 3b40 8d3f 2e3c ab3f 7a57 c73f
000000e0: a64a b43f 988d 5640 4edc ce3f d2d9 ec3f
000000f0: b261 dd3f 8a1e 983f 0e49 613f d550 9c3f

weight f4 [64, 1, 3, 3]
-0.08308724 -0.06580035 -0.03643188 0.17116922 0.82243484 -0.08109512 -0.112477794 -0.09301795
-0.09433674 0.07727253 -0.0021276437 0.1809526 0.31509238 0.0053959163 0.35442254 0.37144005
0.3088527 0.20200789 0.017549317 -0.11228843 0.04620021 -0.1285382 -0.7481188 -0.321105
-0.004757531 0.04657765 -0.03384946 -0.25652462 0.24043432 0.22197857 0.5213791 0.24536021
-0.61886686 0.17502679 -0.022716938 -0.053213157 -0.13717231 0.32187942 -0.25164336 0.016936654
0.7685713 -0.06671454 -0.018213023 -0.004994096 0.006429209 -0.051416554 0.12897654 -0.16543683
0.050778873 0.7710219 -0.16455664 -0.19972174 -0.0039116596 0.07686869 0.14942296 -0.105038956
0.16955918 0.07170059 -0.8631558 0.1946603 -0.031626455 0.1743387 -0.07807641 0.08566511
0.083101004 -0.0064808703 -0.1995993 -0.61421216 -0.2558656 -0.025130901 -0.11886604 -0.11062226
0.07548122 0.23972099 0.03484471 -0.38786408 -0.42633337 -0.34224164 -0.094288334 -0.13276693
-0.15424459 -0.18114379 0.09345367 0.008631942 -0.76153976 0.21647206 0.5062823 0.10836519
-0.09270943 -0.0070093465 -0.40392846 -0.23088121 -0.25062612 -0.19867665 0.13058427 -0.21896324
-0.17009035 -0.3207824 -0.09477803 0.15864311 -0.2832316 -0.2928823 0.06500047 -0.41743696
-0.3521427 -0.0158443 0.25976062 0.18976852 -0.0347915 0.027806744 -0.29057077 0.48540938
0.35622835 -0.43806407 0.0048080976 0.039701276 -0.07981308 0.07929239 0.56762826 -0.031960074
0.08317761 0.41070393 -0.03136796 -0.08589635 -0.24731643 0.0009583859 0.037115954 0.22166578
0.024214253 -0.23139015 -0.39225215 -0.09571223 -0.25480673 -0.37524322 -0.24297114 -0.05948885
-0.15281023 -0.051701844 -0.19837211 -0.5300148 -0.27845368 -0.034465235 -0.1203299 0.010069805
0.11190599 -0.15278162 0.2789864 -0.032195065 -0.7517039 0.023844881 -0.11549055 -0.09983783
0.1513504 0.06827492 0.11091449 -0.009199389 0.14460027 0.6891642 0.07254459 0.035248503
0.19741558 0.07419428 0.08459874 0.05589233 -0.024823463 0.3791919 0.68776387 -0.11217786
-0.32258356 -0.032107405 -0.036906555 -0.089131355 0.15928282 -0.12337812 0.05205667 -0.3244138
0.1595766 0.23467705 0.6834363 0.059701834 0.16444708 -0.7513268 -0.19499318 0.25464934
-0.065221764 0.16490722 -0.048390877 0.15747237 0.029174764 -0.06274366 0.15577498 -0.06752732
0.2780327 0.5864543 -0.40012765 -0.070646174 -0.12531087 -0.04075188 -0.062492218 -0.18165825
0.02410206 -0.3029314 -0.6664491 -0.12329618 -0.031735305 -0.2847949 0.0056048045 -0.21540363
0.14995928 -0.20051178 0.20212968 0.76419777 0.019544778 -0.17442742 -0.09561707 -0.14113949
0.22350734 -0.10779153 0.18500483 0.26270288 -0.22258659 0.20424196 0.35085624 0.39049497
0.29948238 0.093714476 -0.19333586 0.24250033 0.17940034 0.032115508 0.25101173 0.33976352
0.41299868 0.23897739 0.118027754 -0.037814308 0.014099559 0.12190591 -0.84350455 0.005304494
0.13246603 -0.22076036 0.07835565 0.18622522 0.121120185 5.321235e-05 0.73392475 -0.16692376
-0.05520437 0.047010124 -0.15239196 -0.062111735 0.20784852 0.041706093 0.0063746944 0.21908161
00000000: a529 aabd 55c2 86bd 9839 15bd fc46 2f3e
00000010: 178b 523f 3315 a6bd c25a e6bd 3280 bebd
00000020: 9f33 c1bd 0f41 9e3d f06f 0bbb a34b 393e
00000030: ca53 a13e 3ad0 b03b df76 b53e 642d be3e
00000040: f121 9e3e 28db 4e3e 96c3 8f3c 7af7 e5bd
00000050: 6e3c 3d3d 859f 03be b784 3fbf e067 a4be
00000060: 10e5 9bbb 35c8 3e3d bba5 0abd 3257 83be
00000070: 6a34 763e 5a4e 633e 1a79 053f b53f 7b3e
00000080: 0f6e 1ebf 393a 333e df18 babc 0af6 59bd
00000090: e676 0cbe 61cd a43e 66d7 80be bdbe 8a3c
000000a0: 17c1 443f a2a1 88bd 7a33 95bc 83a5 a3bb
000000b0: 1dac d23b 2a9a 52bd 6d12 043e 4668 29be
000000c0: 82fd 4f3d b161 453f 8981 28be db83 4cbe
000000d0: 612d 80bb 556d 9d3d 5502 193e aa1e d7bd
000000e0: eca0 2d3e c2d7 923d c7f7 5cbf 0855 473e
000000f0: be8a 01bd d885 323e 86e6 9fbd 3071 af3d
00000100: dc30 aa3d 7b5d d4bb c263 4cbe 023d 1dbf
00000110: d100 83be 52df cdbc 0a70 f3bd ec8d e2bd
00000120: e695 9a3d 6b79 753e 54b9 0e3d 1f96 c6be
00000130: 5e48 dabe 4c3a afbe 3e1a c1bd 0ef4 07be
00000140: 4bf2 1dbe c27d 39be a364 bf3d fd6c 0d3c
00000150: 45f4 42bf daaa 5d3e b89b 013f 92ee dd3d
00000160: 71de bdbd a9ae e5bb b6cf cebe 206c 6cbe
00000170: 1152 80be e471 4bbe e2b7 053e e637 60be
00000180: 2a2c 2ebe 973d a4be fc1a c2bd 5773 223e
00000190: bb03 91be abf4 95be f71e 853d 4cba d5be
000001a0: 0c4c b4be e8cb 81bc 58ff 843e ae52 423e
000001b0: 8881 0ebd f8ca e33c b1c5 94be 9487 f83e
000001c0: 9063 b63e ef49 e0be 3f8d 9d3b ce9d 223d
000001d0: 0a75 a3bd 0c64 a23d 1650 113f 91e8 02bd
000001e0: 0659 aa3d c947 d23e b17b 00bd 6dea afbd
000001f0: 8540 7dbe 303c 7b3a e606 183d 5bfc 623e
00000200: f85c c63c 8af1 6cbe 46d5 c8be c604 c4bd
00000210: 0776 82be e11f c0be 6dcd 78be 95aa 73bd
00000220: 497a 1cbe 50c5 53bd 0f22 4bbe 0daf 07bf
00000230: 7b91 8ebe 6b2b 0dbd 866f f6bd d3fb 243c
00000240: f82e e53d c972 1cbe 4ed7 8e3e f9de 03bd
00000250: ab6f 40bf 5756 c33c 4f86 ecbd c777 ccbd
00000260: 99fb 1a3e b9d3 8b3d 2327 e33d 09b9 16bc
00000270: 1812 143e 116d 303f 4292 943d bc60 103d
00000280: 4f27 4a3e 2cf3 973d 1b42 ad3d 5bef 643d
00000290: 935a cbbc 7125 c23e 4b11 303f 82bd e5bd
000002a0: ac29 a5be 0e83 03bd 542b 17bd 808a b6bd
000002b0: 091b 233e abad fcbd 6039 553d 9119 a6be
000002c0: 0c68 233e 2e4f 703e aef5 2e3f e989 743d
000002d0: d164 283e f456 40bf 4bac 47be 6661 823e
000002e0: fd92 85bd 70dd 283e 8335 46bd 7040 213e
000002f0: eaff ee3c bf7f 80bd 7a83 1f3e c34b 8abd
00000300: 4d5a 8e3e de21 163f 88dd ccbe f1ae 90bd
00000310: 7e51 00be 71eb 26bd d7f7 7fbd 9f04 3abe
00000320: af71 c53c d319 9bbe 699c 2abf b582 fcbd
00000330: e1fc 01bd a3d0 91be 82a8 b73b c592 5cbe
00000340: ed8e 193e f652 4dbe 15fb 4e3e 77a2 433f
00000350: 5f1c a03c 1a9d 32be e2d2 c3bd df86 10be
00000360: 1cdf 643e cec1 dcbd e871 3d3e fe80 863e
00000370: bded 63be ce24 513e 6ea3 b33e f5ee c73e
00000380: c155 993e 60ed bf3d d6f9 45be 0252 783e
00000390: b9b4 373e 8d8b 033d 9c84 803e 7cf5 ad3e
000003a0: 9074 d33e 7db6 743e 89b8 f13d 2de3 1abd
000003b0: d601 673c cea9 f93d eaef 57bf 52d1 ad3b
000003c0: 2da5 073e 010f 62be ed78 a03d d3b1 3e3e
000003d0: dc0d f83d 5330 5f38 7ee2 3b3f 10ee 2abe
000003e0: fa1d 62bd b08d 403d a30c 1cbe e068 7ebd
000003f0: 3ed6 543e 02d4 2a3d d0e2 d03b ee56 603e

weight f4 [64]
0.24973282 0.19953986 0.23722179 0.28928804 0.27167404 0.28750956 0.26282153 0.20066293
0.23643494 0.3921729 0.25314835 0.24036051 0.24527624 0.23845756 0.1775442 0.1972553
0.29129338 0.21535295 0.31521937 0.29391852 0.1964794 0.2900196 0.2676851 0.36536598
0.32134873 0.20172448 0.24433272 0.24741866 0.21087512 0.29612324 0.21258506 0.36148044
0.31742358 0.30399737 0.22579399 0.15842645 0.18252327 0.17440002 0.22604337 0.19393589
0.31075266 0.2437345 0.2088887 0.20625904 0.3190983 0.17979793 0.22460431 0.25626853
0.19190124 0.29164836 0.21525133 0.27921507 0.21690877 0.29183415 0.32602745 0.27347586
0.21047857 0.2663102 0.16764836 0.31968084 0.32150748 0.23945603 0.19866876 0.27984676
00000000: f6b9 7f3e 2d54 4c3e 45ea 723e 901d 943e
00000010: dc18 8b3e 7434 933e 8b90 863e 957a 4d3e
00000020: 001c 723e e3ca c83e a99c 813e 1121 763e
00000030: b229 7b3e 382e 743e 26ce 353e 4bfd 493e
00000040: 6824 953e 7c85 5c3e 6f64 a13e 7d7c 963e
00000050: e531 493e 737d 943e 050e 893e 4011 bb3e
00000060: d287 a43e dd90 4e3e 5b32 7a3e 515b 7d3e
00000070: a6ef 573e 779d 973e e6af 593e f713 b93e
00000080: 5885 a23e 8ba5 9b3e 8a36 673e 8b3a 223e
00000090: 61e7 3a3e eb95 323e ea77 673e 2197 463e
000000a0: f91a 9f3e 8995 793e ebe6 553e 9235 533e
000000b0: da60 a33e f31c 383e acfe 653e a135 833e
000000c0: c281 443e ef52 953e d86a 5c3e 47f5 8e3e
000000d0: 551d 5e3e 496b 953e 12ed a63e 0705 8c3e
000000e0: b287 573e cf59 883e 03ac 2b3e 35ad a33e
000000f0: a19c a43e f633 753e d36f 4b3e 1348 8f3e

bias f4 [64]
0.21371149 0.24017933 0.7920322 0.52315265 0.3647022 0.15164915 1.1493632 0.44129267
0.5475515 0.76959497 0.5991297 0.60869366 0.42028317 0.23624876 0.78728056 0.51245016
0.56696373 0.21958986 0.169188 0.12394168 0.6755496 0.2090243 0.6793481 0.20351967
0.40235242 0.28862953 0.87950605 0.12563413 0.23585165 0.090936325 0.31948012 0.92766565
0.18070945 0.25187775 0.800163 0.070771754 0.14430077 0.5093899 0.3548186 0.5819422
0.548348 0.24641153 0.29327396 0.80577177 0.4403631 0.6135822 0.3535649 0.9776172
0.15085076 0.23273702 0.24218546 0.7084786 0.64923996 0.62881595 0.43411952 0.34753257
0.22005342 0.9226813 0.6162616 0.99501663 0.38420528 0.11172242 0.22540265 0.64809984
00000000: 2fd7 5a3e 92f1 753e 9fc2 4a3f 55ed 053f
00000010: 3fba ba3e ea49 1b3e 551e 933f 1df1 e13e
00000020: 562c 0c3f 2d04 453f 9060 193f 59d3 1b3f
00000030: 5b2f d73e 32eb 713e 388b 493f ef2f 033f
00000040: 8924 113f 2adc 603e 9e3f 2d3e 23d5 fd3d
00000050: d2f0 2c3f 770a 563e c2e9 2d3f 7667 503e
00000060: 2301 ce3e 40c7 933e 4f27 613f 3ca6 003e
00000070: 1883 713e d33c ba3d e692 a33e 7f7b 6d3f
00000080: e60b 393e 1ff6 803e 7bd7 4c3f c8f0 903d
00000090: 95c3 133e 6067 023f c9aa b53e 2afa 143f
000000a0: 8960 0c3f 4e53 7c3e 0128 963e 0f47 4e3f
000000b0: 4677 e13e b913 1d3f 7506 b53e 1f45 7a3f
000000c0: 9f78 1a3e 9d52 6e3e 77ff 773e db5e 353f
000000d0: 9734 263f 15fa 203f ea44 de3e caef b13e
000000e0: af55 613e d734 6c3f 52c3 1d3f 69b9 7e3f
000000f0: 8eb6 c43e b9ce e43d f4cf 663e dfe9 253f

running_mean f4 [64]
0.1081762 0.31848153 -0.19545805 0.09525739 0.20960698 0.12775764 -0.13437815 -0.12271295
-0.17300041 -0.0032320116 -0.23208319 -0.11951193 0.053976737 0.117267095 -0.0896614 -0.09642033
-0.1313572 0.1608465 0.24463095 0.11525239 -0.027568646 0.07024798 -0.23760523 0.095514946
0.21152838 0.09429561 -0.20336883 0.08739893 0.10550282 0.089731745 0.08402946 -0.11265781
0.14904353 0.18692094 -0.08695523 0.04659075 0.1044679 -0.11793493 0.1809296 -0.1669455
-0.03474482 0.15928961 0.15220882 -0.165387 0.22044642 -0.10790779 0.14773534 -0.13267612
0.08511451 0.084498115 0.2770435 -0.056251645 -0.09238417 -0.07614232 0.09639131 0.14045173
0.12470774 -0.1999588 -0.12732981 -0.2442191 0.30793825 0.09565423 0.19819008 0.15050697
00000000: 7c8b dd3d 0310 a33e 2826 48be 4e16 c33d
00000010: 36a3 563e e6d2 023e 6d9a 09be ed50 fbbd
00000020: 0527 31be 28d0 53bb 37a7 6dbe acc2 f4bd
00000030: b616 5d3d bb29 f03d 65a0 b7bd 0678 c5bd
00000040: 8082 06be f2b4 243e 8980 7a3e 7209 ec3d
00000050: a4d7 e1bc 2cde 8f3d c94e 73be 579d c33d
00000060: e59a 583e 0f1e c13d eb3f 50be 36fe b23d
00000070: dd11 d83d 47c5 b73d a317 ac3d 23b9 e6bd
00000080: de9e 183e 3468 3f3e 9515 b2bd f1d5 3e3d
00000090: 44f3 d53d de87 f1bd 9c45 393e c3f3 2abe
000000a0: 9650 0ebd d11c 233e a1dc 1b3e 365b 29be
000000b0: b5bc 613e c2fe dcbd ef47 173e 40dc 07be
000000c0: 8450 ae3d 590d ad3d a5d8 8d3e 2068 66bd
000000d0: e933 bdbd 81f0 9bbd cf68 c53d 94d2 0f3e
000000e0: c666 ff3d 00c2 4cbe bf62 02be 9214 7abe
000000f0: 15aa 9d3e 5de6 c33d 57f2 4a3e 801e 1a3e

running_var f4 [64]
0.0354615 0.077280164 0.056917135 0.043224584 0.04650415 0.051875748 0.08172801 0.01827447
0.036252968 0.053804733 0.033638064 0.0235623 0.042688783 0.03287793 0.019282164 0.015816934
0.021971045 0.032566283 0.116374575 0.07085572 0.009987275 0.015617829 0.052346285 0.021242436
0.023398645 0.016701816 0.0787093 0.024488112 0.020953739 0.037472464 0.015478634 0.032039847
0.029397044 0.038334694 0.02563298 0.008364437 0.018591218 0.022841452 0.037047192 0.023379987
0.0392134 0.03015717 0.04214371 0.042491492 0.0213378 0.020339634 0.040315818 0.04450285
0.014100594 0.016477246 0.05029744 0.007477133 0.018506767 0.014787419 0.05922966 0.018137516
0.017533105 0.06301933 0.019960979 0.08220158 0.10936285 0.026288062 0.037333228 0.12651654
00000000: 1440 113d 1045 9e3d f121 693d 430c 313d
00000010: 237b 3e3d aa7b 543d 0461 a73d 57b4 953c
00000020: fe7d 143d 5a62 5c3d 11c8 093d b905 c13c
00000030: 6fda 2e3d 02ab 063d a1f5 9d3c 8492 813c
00000040: 9ffc b33c 3964 053d cb55 ee3d ce1c 913d
00000050: aba1 233c ece1 7f3c 0f69 563d 9e04 ae3c
00000060: 84ae bf3c 3fd2 883c 5732 a13d 4b9b c83c
00000070: 2da7 ab3c ba7c 193d 199a 7d3c 373c 033d
00000080: 12d2 f03c d704 1d3d 41fc d13c fe0a 093c
00000090: 9c4c 983c ff1d bb3c ccbe 173d 6387 bf3c
000000a0: 3b9e 203d 2b0c f73c e29e 2c3d 8f0b 2e3d
000000b0: 9ccc ae3c 4e9f a63c 3322 253d 9f48 363d
000000c0: 2e06 673c 4afb 863c b004 4e3d bd02 f53b
000000d0: 819b 973c ee46 723c cd9a 723d 2195 943c
000000e0: 96a1 8f3c 4710 813d 3585 a33c 4d59 a83d
000000f0: a1f9 df3d 105a d73c baea 183d 8d8d 013e

weight f4 [128, 64, 1, 1]
0.10459943 0.08150522 -0.010506849 -0.098841794 -0.094913065 0.008959686 0.18091212 -0.10025986
0.05770848 0.024916932 0.17699794 0.1449313 0.074125834 -0.15294333 0.035169728 0.015482355
-0.47863996 -0.08821312 0.09935476 0.020757448 -0.0628217 -0.13370243 0.27923694 -0.04293845
0.3859465 0.05940167 0.11055642 -0.09862866 0.058211617 -0.20151286 0.14203638 -0.70873195
0.2462319 0.27221632 -0.097844176 -0.082642175 -0.39502984 -0.043874316 0.123080164 0.15207025
-0.05440234 0.1251766 0.050125442 0.14986862 0.16163184 -0.36588934 -0.26074603 -0.17397872
-0.0057682516 -0.12158277 -0.13426626 0.041325457 0.07952415 -0.058723588 0.2391851 0.011561433
0.086373866 0.06175637 -0.064493395 0.18987711 0.33356717 -0.032178838 0.09198934 -0.02433724
0.2087876 -0.12422327 -0.20938967 -0.18467395 0.23809963 0.27559882 0.098031245 0.08619463
0.13515535 -0.28366587 -0.18235853 -0.03146999 -0.28890443 -0.023931928 0.06647677 -0.1936672
-0.07697523 -0.09972526 -0.021792503 0.00037030625 -0.08636314 0.16859853 -0.2224517 -0.22456294
-0.08805509 -0.03389589 -0.13871391 -0.065360524 -0.0485497 0.018219518 -0.3444225 0.3463141
0.4420325 -0.2980669 -0.17759009 0.04492417 0.08669432 -0.16449594 0.20314637 0.14414896
-0.030485 -0.34259367 -0.057832412 0.14890072 0.037830345 -0.087874204 -0.2581903 0.03033564
-0.044288695 -0.09990521 -0.061847586 0.31793916 -0.046373855 0.30928135 -0.32760385 0.04281463
0.032608118 0.04956499 0.16929305 -0.11386376 -0.20024326 0.009235452 0.31052157 0.098566994
0.2702224 -0.13254124 0.0189881 -0.14325714 -0.52108306 0.15962054 -0.109510876 -0.22561504
-0.1237966 -0.1624671 0.041769866 -0.035268024 -0.12896547 0.28859666 -0.0064324685 -0.1538616
0.22299635 0.118478574 -0.15252343 -0.14446777 -0.08000855 0.2040076 -0.13733177 0.3382812
-0.44392848 0.25127095 0.16413675 -0.0023031593 0.021886706 0.2090718 -0.045460235 -0.0584167
0.20375258 -0.1961182 -0.14378566 -0.036800086 -0.09133473 -0.027006144 0.09407137 0.08442732
0.17135099 -0.031089641 -0.03746574 0.085951865 0.596371 -0.02102151 0.3034378 0.09427736
-0.140897 0.026751788 -0.010207332 0.095653 0.27407795 0.07004146 -0.08266417 0.06947668
0.29327592 -0.18728508 0.2750176 0.12538101 0.34867573 0.03491826 0.013534403 0.059191927
-0.16534881 0.016219262 -0.057648744 -0.17480937 -0.10367702 -0.20374967 0.086936325 -0.12881722
-0.017346174 0.43424746 0.09270159 0.48707965 0.13247946 0.11554644 -0.10462702 -0.2823728
0.056846324 -0.089826584 -0.50002253 0.018020485 0.21909243 0.027690688 0.12592492 0.11340866
0.22650732 0.0038114719 -0.101794414 -0.3291381 -0.12042651 0.060540482 -0.14722899 0.10135048
-0.073421225 0.015412169 0.058149796 -0.12881218 -0.12086761 -0.2900187 -0.19358933 0.023625866
-0.06440932 -0.032838102 -0.06442668 -0.1158118 -0.10581274 0.43195543 -0.015857685 -0.987666
-0.0804448 0.0644817 0.0105744535 -0.053097714 0.053140115 -0.13279907 0.22989714 -0.20468652
0.10639801 -0.1353253 0.03601176 -0.036690805 0.072934516 -0.07590093 0.23250028 0.2271434
00000000: 3a38 d63d 35ec a63d eb24 2cbc 916d cabd
00000010: c861 c2bd a6cb 123c 0741 393e 0b55 cdbd
00000020: ba5f 6c3d 981e cc3c f33e 353e df68 143e
00000030: 49cf 973d 2d9d 1cbe 220e 103d b4a9 7d3c
00000040: 4c10 f5be 15a9 b4bd 827a cb3d 860b aa3c
00000050: aaa8 80bd 4ae9 08be 25f8 8e3e 3ae0 2fbd
00000060: c89a c53e 2a4f 733d 686b e23d d3fd c9bd
00000070: 4e6f 6e3d 6359 4ebe fc71 113e 756f 35bf
00000080: 3724 7c3e f05f 8b3e 8762 c8bd 4d40 a9bd
00000090: 5a41 cabe 8eb5 33bd 7411 fc3d 4eb8 1b3e
000000a0: fdd4 5ebd 4b2e 003e 5650 4d3d 2977 193e
000000b0: d182 253e d955 bbbe 8180 85be 7a27 32be
000000c0: 9a03 bdbb 6300 f9bd 187d 09be e244 293d
000000d0: 8fdd a23d 2588 70bd f0ec 743e 2a6c 3d3c
000000e0: c8e4 b03d 3ff4 7c3d 1d15 84bd 256f 423e
000000f0: 51c9 aa3e f5cd 03bd e864 bc3d e45e c7bc
00000100: 6bcc 553e c568 febd 3f6a 56be 2b1b 3dbe
00000110: 64d0 733e 4a1b 8d3e 9bc4 c83d cf86 b03d
00000120: 2a66 0a3e a73c 91be 32bc 3abe ade6 00bd
00000130: 48eb 93be e40c c4bc f924 883d b250 46be
00000140: 30a5 9dbd c23c ccbd 3186 b2bc aa25 c239
00000150: 28df b0bd 18a5 2c3e 61ca 63be d4f3 65be
00000160: 3a56 b4bd 6bd6 0abd 050b 0ebe bddb 85bd
00000170: 0ddc 46bd 1941 953c 2558 b0be 1550 b13e
00000180: 1552 e23e 3a9c 98be 2dda 35be 6802 383d
00000190: cb8c b13d a071 28be 9a05 503e c99b 133e
000001a0: aebb f9bc 7068 afbe aee1 6cbd 6e79 183e
000001b0: fef3 1a3d 64f7 b3bd 8531 84be 7382 f83c
000001c0: 1068 35bd 1a9b ccbd e553 7dbd ecc8 a23e
000001d0: 83f2 3dbd 205a 9e3e b1bb a7be 655e 2f3d
000001e0: 1790 053d a904 4b3d 285b 2d3e 6731 e9bd
000001f0: 920c 4dbe 4b50 173c affc 9e3e 7edd c93d
00000200: 975a 8a3e e4b8 07be ef8c 9b3c 00b2 12be
00000210: b365 05bf 9173 233e 3d47 e0bd a107 67be
00000220: 1289 fdbd c75d 26be e116 2b3d 3475 10bd
00000230: 860f 04be f1c2 933e 75c7 d2bb e58d 1dbe
00000240: 2859 643e e5a4 f23d 1a2f 1cbe 5cef 13be
00000250: 86db a3bd 5ee7 503e b3a0 0cbe 3233 ad3e
00000260: 984a e3be 96a6 803e 7713 283e 9af0 16bb
00000270: c04b b33c eb16 563e 8334 3abd 5a46 6fbd
00000280: 84a4 503e 36d3 48be 8c3c 13be b0bb 16bd
00000290: b40d bbbd fd3b ddbc 7ea8 c03d 3be8 ac3d
000002a0: a276 2f3e b4af febc ad75 19bd 8807 b03d
000002b0: c5ab 183f 4d35 acbc 335c 9b3e 7d14 c13d
000002c0: 4e47 10be 9126 db3c a73c 27bc b8e5 c33d
000002d0: f253 8c3e e671 8f3d d54b a9bd ca49 8e3d
000002e0: 4328 963e a9c7 3fbe 1bcf 8c3e e163 003e
000002f0: a085 b23e 7306 0f3d 67bf 5d3c 3c73 723d
00000300: 3351 29be 42de 843c 1721 6cbd 3a01 33be
00000310: 9e54 d4bd c1a3 50be ac0b b23d a9e8 03be
00000320: 9019 8ebc af55 de3e 55da bd3d 8162 f93e
00000330: b2a8 073e 9da3 ec3d b146 d6bd 2b93 90be
00000340: b1d7 683d 00f7 b7bd 7a01 00bf b29f 933c
00000350: c459 603e 95d7 e23c 76f2 003e cd42 e83d
00000360: 89f1 673e e3c9 793b 9779 d0bd ca84 a8be
00000370: 2da2 f6bd 4cf9 773d 32c3 16be d790 cf3d
00000380: de5d 96bd 5283 7c3c 7b2e 6e3d 57e7 03be
00000390: 7089 f7bd 557d 94be 483c 46be 088b c13c
000003a0: 09e9 83bd 3f81 06bd 23f2 83bd bd2e edbd
000003b0: 5ab4 d8bd 4329 dd3e fae7 81bc aed7 7cbf
000003c0: 3ec0 a4bd fb0e 843d 7940 2d3c fd7c 59bd
000003d0: 73a9 593d 7bfc 07be 286a 6b3e 5899 51be
000003e0: 33e7 d93d b792 0abe 1181 133d 1949 16bd
000003f0: b15e 953d f271 9bbd 8e14 6e3e 4898 683e
